models/fnn/model .pt (torch, 603502 bytes, 7 tensors)

weight f4 [131, 128]
0	0x3ff6a529	1.9269153
1	0x3fbe5f53	1.4872841
2	0x3f669567	0.9007172
3	0xc006c0db	-2.105521
4	0x3f2dacd5	0.67841846
5	0xbf9e0591	-1.2345449
6	0xbd306786	-0.043067478
7	0xbfcd65ba	-1.604667
8	0xbf408bf0	-0.7521353
9	0x3fd3095b	1.648723
10	0xbec8f2f6	-0.39247864
11	0xbfb3a966	-1.4036071
12	0xbf3a566e	-0.7278813
13	0xbf0f36d1	-0.5594302
14	0xbf44d2a0	-0.7688389
15	0x3f432f9f	0.7624454
16	0x3fd23771	1.6423169
17	0xbe236d85	-0.15959747
18	0xbefeaae4	-0.49739754
19	0x3ee111d8	0.43958926
20	0xbf4214e2	-0.75813115
21	0x3f8a0650	1.0783176
22	0x3f4d0144	0.80080056
23	0x3fd71e93	1.6806206
24	0x3fa3ba59	1.2791244
25	0x3fa5f12f	1.2964228
26	0x3f1c4788	0.6104665
27	0x3faad8b0	1.3347378
28	0xbe6d2eed	-0.23162432
29	0x3d2b0c00	0.04175949
30	0xbe80ce7a	-0.2515753
31	0x3f5c1fb0	0.8598585
32	0xbfb13cfd	-1.3846737
33	0xbf5f0955	-0.87123615
34	0xbe64ba09	-0.22336592
35	0x3fdbd280	1.7173615
36	0x3ea34448	0.31888032
37	0xbed95a8d	-0.42451897
38	0x3e9c8774	0.30572093
39	0xbf464bb2	-0.7745925
40	0xbfc75e89	-1.5575725
41	0x3f7ee202	0.9956361
42	0xbf6139a5	-0.87978584
43	0xbf19e472	-0.60114205
44	0xbfa31763	-1.2741512
45	0x4007dbb6	2.122785
46	0xbf9e091d	-1.2346531
47	0xbef9cfd9	-0.48791388
48	0xbf69f04e	-0.913823
49	0xbf287baf	-0.65813726
50	0x3d9fcafb	0.07802387
51	0x3f069b67	0.52580875
52	0xbef9da0d	-0.48799172
53	0x3f987ec8	1.191369
54	0xbf5062ce	-0.81400764
55	0xbf3c6a06	-0.7359928
56	0xbfb39da0	-1.4032478
57	0x3d137895	0.036003668
58	0xbd82005f	-0.06347727
59	0x3f2cf519	0.6756149
60	0xbdc84efb	-0.09780689
61	0x3fec1ba8	1.844594
62	0xbf979eec	-1.1845374
63	0x3fb11825	1.3835493
64	0x3fb8fa25	1.4451338
65	0x3f5b3dda	0.85641253
66	0x400df4f4	2.2180758
67	0x3f05ee2d	0.5231655
68	0x3eb17bac	0.34664667
69	0xbe4a1141	-0.19733144
70	0xbf86fcc5	-1.0545889
71	0x3fa3955c	1.2779956
72	0xbe30529c	-0.17219013
73	0x3f061700	0.52378845
74	0x3d67ec48	0.05662182
75	0x3eda437d	0.42629614
76	0x3f133388	0.57500505
77	0xbf244808	-0.6417241
78	0xc00d35a2	-2.2063985
79	0xbf4034a1	-0.75080305
80	0x3c32104d	0.010868144
81	0xbead6fa3	-0.33874235
82	0xbfab9b63	-1.3406795
83	0xbf15dad8	-0.58537054
84	0x3f0943a0	0.5361881
85	0x3f064dab	0.5246226
86	0x3f9212e5	1.1412016
87	0x3d53883c	0.051643595
88	0x3f3e73a3	0.743952
89	0xbef6923b	-0.4815844
90	0xbf8654e8	-1.0494661
91	0x3f1a991d	0.6038988
92	0xbfdc742a	-1.722295
93	0xbf53e8a9	-0.82776886
94	0x3faad78c	1.334703
95	0x3ef79276	0.48353928
96	0xc0209c60	-2.5095444
97	0x3ef9db46	0.48800105
98	0x3f48daaf	0.78458685
99	0x3ceaad81	0.028647186
100	0x3f24088a	0.6407553
101	0x3f154fb4	0.5832474
102	0x3f88910e	1.0669267
103	0xbee67a81	-0.45015338
104	0xbe3db6c2	-0.18526748
105	0x3f40b4ce	0.75275886
106	0x3ecf3c6a	0.4047578
107	0x3e36bfca	0.17846599
108	0x3e87a238	0.2649095
109	0x3fa2f72e	1.2731683
110	0xbaabd149	-0.0013108636
111	0xbe9b71f4	-0.30360377
112	0xbfba7fee	-1.4570291
113	0xbdd19523	-0.10233524
114	0xbf196218	-0.59915304
115	0x3ef440bd	0.4770564
116	0x3f39e6c0	0.7261772
117	0x3dbaadd4	0.09115186
118	0xbec7338e	-0.3890652
119	0x3f072589	0.5279165
120	0xbc4fd6c1	-0.012685479
121	0x3e769dcc	0.24083632
122	0x3e07b75a	0.13253537
123	0x3f43a546	0.7642406
124	0x3f8c2947	1.0950097
125	0x3eae0630	0.33989096
126	0x3f384fca	0.7199675
127	0x3ed2a405	0.41140762
128	0x3ffb61e4	1.9639249
129	0x3f866d1c	1.0502048
130	0xbfbac876	-1.4592426
131	0xbf8f6d5f	-1.1205252
132	0xbe23124d	-0.1592495
133	0x3fd51a2f	1.6648616
134	0x3f2538e8	0.6453996
135	0x3f1b4afb	0.60661286
136	0x3f932c7d	1.1497952
137	0x3d03bf2d	0.03216474
138	0xbfe5b6fb	-1.7946466
139	0x3f6d4fa3	0.9269964
140	0xbec13d76	-0.37742203
141	0x3f87b194	1.0601068
142	0xbf325bda	-0.69671404
143	0x3f1d0262	0.6133176
144	0xbf7dbf06	-0.99119604
145	0x3f752f69	0.9577547
146	0x3fd14143	1.6348041
147	0x3fbe1703	1.4850773
148	0x3e88912b	0.26673254
149	0xbe533072	-0.20623949
150	0xbf35d214	-0.7102368
151	0x3df3626c	0.11884007
152	0x3ea6ce95	0.32579485
153	0x3f7b0764	0.9805815
154	0xbee2bcaa	-0.44284564
155	0x3fced8ac	1.6159873
156	0xc0206f77	-2.5068033
157	0xbeda8d35	-0.42685857
158	0xbf9b8371	-1.2149488
159	0x3f55f973	0.83583754
160	0xbff3473e	-1.9006116
161	0x3e7306a6	0.23733005
162	0x3d3aa1fb	0.045564633
163	0xbeb0bb2d	-0.34517804
164	0x3e9fb2aa	0.31190997
165	0xbf3e4a94	-0.7433255
166	0x3e458aa2	0.19291165
167	0xbf8d0f27	-1.1020249
168	0xbfcf133d	-1.6177746
169	0x3fb15738	1.3854742
170	0x3fa5a525	1.2941023
171	0x3d00b42b	0.03142182
172	0xbfc7cc38	-1.5609198
173	0x3f4a982d	0.7913845
174	0x3f483f11	0.7822123
175	0x40034ac6	2.0514388
176	0x3bcc27c3	0.006230326
177	0x3e0dd6d9	0.13851489
178	0xbf50c002	-0.8154298
179	0xbe7001c1	-0.23438169
180	0xbf732a6d	-0.9498661
181	0xbfccac3c	-1.5990062
182	0xbf9034f8	-1.1266165
183	0xbf0894f8	-0.5335231
184	0xbf0e1979	-0.5550762
185	0xbfc221e1	-1.5166589
186	0xbff5deef	-1.9208659
187	0x3e0da4c0	0.13832378
188	0x3f854555	1.0411783
189	0xbf0d0505	-0.55085784
190	0x3f3536fc	0.70787024
191	0x3f34e06a	0.7065493
192	0x3fe54767	1.7912415
193	0xbf697db4	-0.9120743
194	0x3f77a42c	0.9673488
195	0xbebe6929	-0.37189606
196	0xbf986204	-1.1904912
197	0x3eb70053	0.35742435
198	0x3ef5308b	0.47888598
199	0x3facb981	1.3494111
200	0x3f0bf3af	0.54668707
201	0x400918eb	2.1421459
202	0xbf092641	-0.53573996
203	0xbf687bc1	-0.90813833
204	0x3e3c4f00	0.18389511
205	0x3f8aac3c	1.0833812
206	0x3faacee7	1.3344392
207	0x3ee565d5	0.44804254
208	0xbf56a3a8	-0.8384347
209	0xbf81fd5a	-1.0155442
210	0xbf007927	-0.50184864
211	0xbf1628d9	-0.5865608
212	0x3e32faaf	0.1747844
213	0x3ee3f265	0.4452087
214	0xbe110bfd	-0.1416473
215	0xc01504b0	-2.328411
216	0xbebabc7c	-0.36471927
217	0x3f87a1bc	1.0596232
218	0xbfe28292	-1.7696097
219	0x3fc203e0	1.5157433
220	0x3e94b830	0.29046774
221	0xbef89551	-0.4855142
222	0x3f859cd3	1.0438484
223	0x3fdbb25e	1.7163808
224	0x3a5ea5fb	0.0008493361
225	0x3fd8b4ed	1.6930214
226	0x3e175eae	0.14782211
227	0xbf89bbd6	-1.0760448
228	0xbf15790c	-0.5838783
229	0x3db95536	0.09049456
230	0x3edae737	0.42754528
231	0x3fffbd77	1.9979695
232	0xbd3f1670	-0.046652257
233	0xbf664bc8	-0.89959383
234	0xc003e69b	-2.06095
235	0xbf8eca16	-1.1155422
236	0x3ce1722a	0.027520258
237	0x3d7f5357	0.06233534
238	0x3e3ff634	0.18746263
239	0x3ed288e5	0.41120067
240	0xbf6b4ec4	-0.9191706
241	0x3e8bfe4f	0.2734246
242	0xbf0551a9	-0.5207773
243	0x3ef73a1c	0.4828652
244	0xbf59be48	-0.8505597
245	0xbc7dbc82	-0.015486838
246	0xbec51b08	-0.38497186
247	0x3fbd65ff	1.4796752
248	0x3fa47e28	1.2851
249	0xbf3e3036	-0.74292314
250	0x3f5a35aa	0.85238135
251	0x3f0c1a14	0.5472729
252	0x3f053f99	0.5205017
253	0x3f0ea0cf	0.55714124
254	0x3ef95a8d	0.48701897
255	0x3e5cb2d5	0.21552594

weight f4 [256, 256]
0	0xbd494c21	-0.049144868
1	0x3d4cd22a	0.050005116
2	0x3d3dceec	0.046339914
3	0x3ca25c2c	0.019819342
4	0xbc1f52bd	-0.009724316
5	0x3d5a5f94	0.053313807
6	0xbc237a0a	-0.009977827
7	0x3d059f56	0.032622658
8	0xbc872c1a	-0.016500521
9	0x3b414d98	0.0029495712
10	0xbd575322	-0.052569516
11	0x3d194c63	0.037426364
12	0xbcc3d476	-0.02390502
13	0xbbd7641b	-0.006573213
14	0x3d5129b5	0.051065166
15	0xbd03ae45	-0.03214862
16	0x3c3ed5dd	0.011647669
17	0xbda3bc01	-0.07994843
18	0xbc56d0b6	-0.013111284
19	0x3d37971e	0.04482185
20	0x3d46012d	0.048340965
21	0x39d87689	0.00041287046
22	0xbd288cdc	-0.04114996
23	0x3d7b4aab	0.061350506
24	0x3d6c8c0e	0.057750754
25	0x3ad35b2f	0.0016125197
26	0xbd1fc7fe	-0.039009087
27	0xbbe2285f	-0.0069017853
28	0x3d386135	0.04501458
29	0x3bc3ea01	0.005978823
30	0x3d8808e9	0.066423245
31	0x3da9a7b1	0.08283938
32	0x3d0cab9c	0.034343347
33	0xbd563d98	-0.052304834
34	0x3c135347	0.008992023
35	0x3ba5a11c	0.005054606
36	0xbcda9489	-0.026682155
37	0x3c0823eb	0.008309345
38	0x3d50b8d0	0.0509575
39	0xbd401b27	-0.046900894
40	0xbc4fab58	-0.012675129
41	0xbd817c33	-0.06322517
42	0x3c558119	0.013031268
43	0x3cad8130	0.021179765
44	0x3da0ab30	0.078451514
45	0x3ce05528	0.027384356
46	0x3d376ddb	0.0447825
47	0xbd6371de	-0.055528514
48	0xbbc643e2	-0.0060505727
49	0x3b8cf9f1	0.0043022563
50	0xbd21f2c7	-0.03953817
51	0x3ccf2961	0.025288286
52	0x3cc41e1e	0.023940142
53	0xbd5db5e6	-0.05412855
54	0xbd373605	-0.04472925
55	0xbce3ce50	-0.027808338
56	0x3d0a856f	0.03381866
57	0x3ce0b9ab	0.027432283
58	0x3d0828ab	0.03324191
59	0x3d211718	0.039328665
60	0xbd0e48bd	-0.034737337
61	0x3ca26cf4	0.019827344
62	0xbcd544b3	-0.026033735
63	0xbd30e820	-0.04319012
64	0x3bcdd07a	0.006280956
65	0x3c13e237	0.009026102
66	0xbd18c442	-0.03729654
67	0xbcf3c8fa	-0.029758919
68	0x3cb38ef2	0.021918748
69	0x3d80bbec	0.06285843
70	0xbc927afa	-0.017880905
71	0x3c997ec8	0.018737212
72	0xbbe9bc5e	-0.007133051
73	0xbd189f1a	-0.037261106
74	0x3d5c645b	0.053806644
75	0xbcc9e442	-0.024644975
76	0xbd0e5246	-0.03474643
77	0x3cb85a0b	0.022503873
78	0x3d7c94cb	0.061665338
79	0xbc8e35b9	-0.017359601
80	0xbce85068	-0.028358653
81	0x3c4acd22	0.012378009
82	0xbd2bd5fd	-0.041952122
83	0x3bd8de7f	0.0066183205
84	0x3d88559d	0.066569544
85	0x3d0ea5c8	0.03482607
86	0xbd03ffe1	-0.032226447
87	0xbcdecd5c	-0.027197532
88	0xbd7a9f9c	-0.06118737
89	0xbd5595d4	-0.05214484
90	0xbc2e3060	-0.010631651
91	0x3d397863	0.045280825
92	0x3d243a51	0.040094677
93	0xbc29d6e8	-0.010366179
94	0xbb151f5b	-0.0022754285
95	0x3d80a155	0.06280772
96	0x3ccc62b4	0.024949409
97	0xbcda8613	-0.02667526
98	0x3d2717bb	0.040794116
99	0xbd39452a	-0.045231976
100	0xbd1e4a75	-0.038645227
101	0xbbc7b33c	-0.0060943644
102	0xbd2e80d3	-0.042603325
103	0xbd8a5ab0	-0.067555785
104	0xbca5f267	-0.020257188
105	0x3be7b92c	0.0070716348
106	0x3c9f3432	0.019434068
107	0xbcff187f	-0.03113961
108	0xbd40f222	-0.047105916
109	0xbc81b80e	-0.015834834
110	0x3ceafc8f	0.028684882
111	0xbcf1fbf1	-0.02953908
112	0xbccf5946	-0.025311124
113	0xbcfb9d62	-0.030714694
114	0x3d4360eb	0.04769985
115	0x3c6f692a	0.014612475
116	0x39644524	0.00021769531
117	0x3d97cdd7	0.07412308
118	0x3c00167b	0.00781786
119	0x3cf7f97e	0.030270334
120	0x3d7977b0	0.06090516
121	0xbbf46ee7	-0.0074595097
122	0xbc5119a0	-0.012762457
123	0x3d312ee0	0.043257594
124	0x3ce48ab7	0.027898176
125	0xbd547845	-0.05187251
126	0x3cb42967	0.021992398
127	0xbd1b6bfb	-0.037944775
128	0xbd840132	-0.064455405
129	0x3d780f71	0.0605616
130	0xbd0f4f7e	-0.03498792
131	0xbd333ca6	-0.04375901
132	0xbd27b202	-0.040941246
133	0x3b18ad05	0.0023296487
134	0xbafef71d	-0.0019452308
135	0x3d6bac30	0.057537258
136	0x3b876e56	0.004133026
137	0xbc6c5cfb	-0.014426465
138	0xbd1b630a	-0.037936248
139	0xbd4704bf	-0.04858851
140	0x3d913354	0.07089868
141	0xbc0f3613	-0.00874092
142	0xbd4035d4	-0.046926335
143	0xbd209711	-0.03920657
144	0x3cba3fea	0.022735555
145	0xbd0bb725	-0.034110207
146	0x3d640bf2	0.055675454
147	0x3ca3196e	0.019909587
148	0x3db26963	0.08711507
149	0xbd3fd6dd	-0.04683577
150	0xbc813d14	-0.015776195
151	0xbc905d0d	-0.017622495
152	0xbc9244e4	-0.017855115
153	0xbc9e8755	-0.01935164
154	0x3caf89ec	0.021428071
155	0xbd59f7f1	-0.05321497
156	0xbb0580e7	-0.0020371021
157	0xbd2c0a3a	-0.04200194
158	0x3d26df3f	0.040740248
159	0xba6e1b7d	-0.00090830756
160	0x3d797d84	0.060910717
161	0xbd09b60b	-0.033620875
162	0x3c6d3f5a	0.014480436
163	0x3da6b918	0.081407726
164	0x3d2bc41d	0.041935075
165	0xbd8304ab	-0.06397375
166	0xbd6ce121	-0.057831887
167	0xbcd5592c	-0.026043497
168	0xbb8d12f1	-0.0043052365
169	0x3c29fc51	0.010375098
170	0x3d95c544	0.07313016
171	0xba9f5aa8	-0.0012157755
172	0xbb715d02	-0.0036829119
173	0x3cfc812e	0.030823316
174	0xbc49a0ce	-0.012306405
175	0xbca98e77	-0.020697815
176	0x3c96fd44	0.018431313
177	0xbcd8f80d	-0.026485467
178	0x3cd4d3ae	0.025979843
179	0xbd01dfc3	-0.031707536
180	0xbcccebde	-0.025014814
181	0x3d08ed0a	0.033429183
182	0x3b0c07a1	0.0021366852
183	0xbba138d8	-0.0049201064
184	0x3d38bc08	0.045101196
185	0x3d4e3c2e	0.05035036
186	0xbcccfcc6	-0.025022876
187	0xbd39efc3	-0.04539467
188	0xbd114eb7	-0.03547546
189	0x3d65a84b	0.0560687
190	0x3d3dc258	0.04632792
191	0xbd6ea8bf	-0.058266398
192	0x3c352d9a	0.011058236
193	0x3cd2d9b3	0.025738573
194	0x3c7885a1	0.015168578
195	0xbcc55ce4	-0.024092145
196	0xbc68d837	-0.014211706
197	0xbd035334	-0.03206177
198	0x3cd68bc2	0.026189689
199	0xbdabd255	-0.08389727
200	0xbcbba51a	-0.022905875
201	0xbd7a72b0	-0.06114453
202	0xbd17e609	-0.037084613
203	0xbd9f3c49	-0.0777517
204	0xbc078a84	-0.008272771
205	0x3d245ee6	0.040129565
206	0xbc95b374	-0.018274046
207	0x3d18beb2	0.037291236
208	0xbc94b8e8	-0.018154576
209	0xbd686a8d	-0.05674224
210	0x3ce2f6cb	0.02770557
211	0xbd933d36	-0.071894094
212	0x3b9745f8	0.004616495
213	0x3d239bed	0.039943624
214	0x3c1659ba	0.009176666
215	0xbda74cd0	-0.08168948
216	0x3d8b6515	0.06806389
217	0x3d24c5a8	0.040227562
218	0xbb81df9c	-0.003963424
219	0xbd6afd08	-0.057370216
220	0x3d041ea6	0.03225579
221	0x3c544c32	0.0129576195
222	0xbbf3394b	-0.0074226013
223	0xbc920da8	-0.017828777
224	0x3d6b4c2c	0.05744569
225	0xbd3932b6	-0.045214377
226	0xbca06fe6	-0.019584607
227	0x3d4033ec	0.046924517
228	0xb99d7455	-0.00030032048
229	0xbabae929	-0.0014260161
230	0x3d275aa5	0.04085793
231	0xbbda34d5	-0.00665913
232	0x3ccdbe41	0.025115134
233	0x3d63d4b8	0.055622786
234	0xbd059b7d	-0.03261899
235	0x3d8bd2de	0.06827329
236	0x3d08d464	0.033405676
237	0xbd065010	-0.032791197
238	0x3c27e296	0.010246893
239	0xbd6089b2	-0.054818816
240	0x3b93259f	0.004490569
241	0x3d2a2e4f	0.04154807
242	0xbcacf17c	-0.021111242
243	0xbace0224	-0.0015717191
244	0xbd2f6191	-0.042817656
245	0x3d53208b	0.051544707
246	0xbb71f302	-0.0036918526
247	0xbcaf6b42	-0.02141345
248	0xb7b83c38	-2.196255e-05
249	0x3da13b42	0.07872631
250	0x3c379c34	0.011206675
251	0xbd2bffc1	-0.041991953
252	0xbb8eb3d1	-0.004354932
253	0xbd13118b	-0.035905402
254	0x3beb9531	0.007189416
255	0x3c89e845	0.016834388

bias f4 [256]
0	0x3d709411	0.058734957
1	0x3dafdce1	0.08587051
2	0xbcc78cc3	-0.024359113
3	0xbd66fff3	-0.056396436
4	0x3b25d149	0.0025301746
5	0x3db182ce	0.08667527
6	0x3c02dba7	0.0079869395
7	0xbc60055a	-0.013673151
8	0xbd22b7ca	-0.039726056
9	0xbda39d2e	-0.07988964
10	0x3d9d2b4e	0.07674275
11	0x3d256747	0.040381696
12	0xbbd48017	-0.006484996
13	0x3da8ee41	0.08248568
14	0x3db4d24f	0.08829176
15	0xbbf2a822	-0.007405297
16	0x3c1e5ba7	0.009665406
17	0xbdab2216	-0.08356111
18	0xbcbe511c	-0.023232035
19	0x3d86d54c	0.06583652
20	0x3d396db3	0.045270633
21	0x3d01c739	0.031684134
22	0xbcb27d43	-0.021788245
23	0x3cd7cf7a	0.02634405
24	0xbdbfe623	-0.09370067
25	0xbdaec8b8	-0.08534378
26	0x3c8e0716	0.017337363
27	0xbdd4730c	-0.10373506
28	0x3d40f07f	0.047104355
29	0x3cc6a565	0.024248788
30	0x3d33d0cc	0.043900296
31	0xbd397f80	-0.04528761
32	0x3be700ff	0.0070496793
33	0x3c27e8a5	0.010248338
34	0xbd04464e	-0.03229361
35	0x3d73c06c	0.05950968
36	0x3daf0aff	0.08547019
37	0xbd307789	-0.043082748
38	0x3d7090db	0.058731895
39	0xbd17f321	-0.0370971
40	0xbda783ea	-0.081794575
41	0xbd61553c	-0.055012926
42	0x3c33952e	0.01096086
43	0xbb03bb56	-0.0020100675
44	0xbd0689ab	-0.032846134
45	0xbcbb1eed	-0.022841895
46	0x3be75cfe	0.007060646
47	0x3d33a56a	0.043858923
48	0x3dc28af6	0.09499161
49	0x3d3fb52e	0.046803646
50	0xbabaa612	-0.0014240167
51	0xbd2521f5	-0.040315587
52	0xbcd26973	-0.025685048
53	0xbc6015cb	-0.013677071
54	0x3d7b1eec	0.061308786
55	0xbb551025	-0.0032510844
56	0xbdc55461	-0.096352346
57	0x3da3b1af	0.07992875
58	0x3c15f198	0.009151839
59	0x3d60ac9d	0.054852117
60	0x3d7e01a0	0.06201327
61	0x3c516ecb	0.012782763
62	0x3d2c0616	0.04199799
63	0xbc2d4999	-0.010576629
64	0x3dc34a4e	0.09535657
65	0xbd5ffc4d	-0.054683972
66	0x3cff55c6	0.03116883
67	0xbda91daa	-0.08257611
68	0xbdb5bfec	-0.08874497
69	0xbd3c29f6	-0.045938455
70	0x3dc3691e	0.09541534
71	0x3cbbba30	0.02291593
72	0x3dc4b063	0.096039556
73	0x3d48aa99	0.04899082
74	0xbcbe5d2b	-0.023237785
75	0xbdbe2dd0	-0.09286082
76	0x3c9e1e7f	0.019301651
77	0xbd07c016	-0.03314217
78	0xbbaa101b	-0.005189908
79	0xbd64005e	-0.055664413
80	0xbd564c87	-0.052319076
81	0xbd8f5a26	-0.06999616
82	0xbce4ff54	-0.027953781
83	0x3b5f67f3	0.0034089058
84	0xbd8d1b60	-0.06889987
85	0x3db242c8	0.08704144
86	0xbceb7500	-0.028742313
87	0xbc8ac13f	-0.01693785
88	0x3d231f61	0.039824847
89	0xbd0b73f3	-0.034046125
90	0xbcea1c9e	-0.028578099
91	0x3ced459d	0.028963858
92	0xbc3bdc55	-0.0114661055
93	0x3d133f7c	0.035949215
94	0x3beef168	0.0072919615
95	0x3d96e980	0.07368755
96	0xbc0cf550	-0.008603409
97	0x3d74fbbc	0.059810385
98	0x3bd59311	0.006517776
99	0xbc8d585c	-0.017254047
100	0x3d1d5989	0.038415466
101	0x3d0dc1ba	0.03460858
102	0x3bd32fa4	0.006444888
103	0xbcd9396a	-0.026516635
104	0x3d7cfdd2	0.0617655
105	0xbd1ea660	-0.038732886
106	0x3b51c29e	0.003200687
107	0x3d10cb46	0.035350107
108	0xbc34c351	-0.011032895
109	0xbda4c742	-0.08045818
110	0xbd761778	-0.060080975
111	0xbd84cfbb	-0.06484934
112	0xbd9b074f	-0.075697534
113	0xbcd5a115	-0.026077786
114	0x3b36f9d1	0.0027919898
115	0xbc8e5142	-0.017372731
116	0xbd2bc6ba	-0.041937567
117	0xbd548336	-0.051882945
118	0x3c0137dc	0.007886853
119	0xbd982af6	-0.07430069
120	0x3d986c2a	0.07442506
121	0xbdaf2a43	-0.08552983
122	0x3cec2e26	0.028830599
123	0xbb516630	-0.0031951778
124	0xbc19dff1	-0.009391771
125	0xbc24a6df	-0.010049551
126	0x3c5c756d	0.013455731
127	0xbd330db3	-0.043714236
128	0x3ce14a1a	0.027501155
129	0x3c2c9f5b	0.01053604
130	0x3d4af1ed	0.049547125
131	0xbdba5b2b	-0.0909942
132	0xbd3a394b	-0.045464795
133	0xbbe7a262	-0.007068918
134	0xbcb471d8	-0.022026941
135	0x3da1ed31	0.07906569
136	0x3dcca667	0.09992676
137	0x3cd75d1e	0.026289519
138	0x3d8154d7	0.0631501
139	0xbc33de8a	-0.01097835
140	0xbd7c0b9e	-0.061534517
141	0xbd39e3d6	-0.045383297
142	0x3d1613fa	0.036640145
143	0x3d0f5184	0.03498985
144	0xbc4251cf	-0.011860325
145	0xbd192c2a	-0.037395634
146	0x3cf22a5f	0.02956122
147	0xbc954431	-0.018220993
148	0xb9f544a5	-0.00046781186
149	0x3bd14a65	0.0063870423
150	0xbd5b4574	-0.053533033
151	0x3dbccfab	0.09219297
152	0x3d76ea2a	0.06028191
153	0xbd5f3c3b	-0.0545008
154	0xbd4ff60d	-0.05077176
155	0xbdd3878d	-0.10328589
156	0x3b9acb54	0.0047239456
157	0x3c274d4d	0.010211301
158	0xbadb008f	-0.001670854
159	0x3d5076ec	0.050894663
160	0x3d9febba	0.07808633
161	0xba7e8bf8	-0.0009710188
162	0xbd208269	-0.03918687
163	0xbd03f4ec	-0.032215998
164	0x3d156cea	0.03648082
165	0xbccc33d5	-0.02492706
166	0x3d36c2a8	0.044619232
167	0x3cd4807c	0.025940172
168	0x3d3ee149	0.046601567
169	0xbc28db4d	-0.010306192
170	0x3da3e037	0.0800175
171	0xbda36674	-0.07978526
172	0x3c41d591	0.011830703
173	0xbdb465b6	-0.08808462
174	0xbd538161	-0.051637057
175	0x3c9ebaef	0.019376246
176	0xbda7c713	-0.08192267
177	0x3c8c4e93	0.01712731
178	0x3cefd28d	0.029275203
179	0x3b79e3be	0.003813013
180	0x3d8157b2	0.06315555
181	0xbcb5e632	-0.022204492
182	0x3d98f407	0.074684195
183	0xbd67ddcd	-0.05660801
184	0x3d44b01f	0.048019525
185	0xbd554d16	-0.052075468
186	0xbd3a6fa7	-0.045516636
187	0xbcc291a7	-0.023751093
188	0xbdb1292f	-0.08650433
189	0xbd6742c8	-0.056460172
190	0x3d3ebeb9	0.046568606
191	0x3c912d61	0.017721834
192	0x3c90c686	0.017672788
193	0x3da315f8	0.079631746
194	0xba8fd2be	-0.001097284
195	0xbc6a0ac1	-0.0142847905
196	0x3dcb4988	0.09926134
197	0x3d51785e	0.05114018
198	0x3d8870a4	0.066621095
199	0xbd0de02d	-0.03463762
200	0x3d3de4c6	0.046360753
201	0x3d7ac99f	0.061227437
202	0x3c93f25d	0.018059904
203	0x3d9da2ee	0.07697092
204	0x3d96d35b	0.073645316
205	0xbd0fa3ea	-0.03506843
206	0x3b4a5222	0.003087171
207	0xbd916754	-0.070997864
208	0x3b7e7534	0.0038827183
209	0xbd7d2e56	-0.061811768
210	0xbd823940	-0.06358576
211	0x3d70dc7d	0.058804024
212	0x3c83e4db	0.016100338
213	0xbc159fb2	-0.009132313
214	0xbd56fac0	-0.052485228
215	0xbda9b7b3	-0.08286991
216	0x3da53e10	0.08068478
217	0xbdafdba6	-0.085868165
218	0xbda3d39b	-0.07999345
219	0x3d99af08	0.07504088
220	0xb9e3485e	-0.00043350732
221	0x3b76954a	0.0037625604
222	0x3ce5e475	0.028063038
223	0x3ca2ea8c	0.019887231
224	0x3dd26aaf	0.102742545
225	0x3d52e324	0.05148615
226	0xbda05f00	-0.0783062
227	0xbd38db36	-0.04513093
228	0xbd16275f	-0.03665864
229	0xbbd34977	-0.0064479667
230	0x3b941bfc	0.0045199376
231	0x3c873357	0.016503973
232	0x3d3b2deb	0.045698088
233	0x3c09e691	0.008416788
234	0xbd8b0bab	-0.06789335
235	0xbbb18685	-0.0054176473
236	0xbc98a976	-0.018635493
237	0xbd6cf29b	-0.057848554
238	0xba40877d	-0.0007344408
239	0x3dbad6fd	0.09123037
240	0xbd8eb944	-0.0696893
241	0x3cde2fd9	0.027122425
242	0xbd7d81e6	-0.06189146
243	0xbba21aea	-0.004947056
244	0xbd12dda1	-0.035855893
245	0x3d7312b9	0.059344027
246	0x3c290043	0.010315004
247	0x3d3ba415	0.045810778
248	0xbcce0a86	-0.025151502
249	0xb9544e7d	-0.00020247135
250	0x3ccd1e08	0.025038734
251	0x3d15ebbc	0.036601767
252	0x3d8815c3	0.06644776
253	0x3d2fa90a	0.042885818
254	0xbd81bb58	-0.06334561
255	0x3d9a9b80	0.075491905

weight f4 [131, 256]
0	0xbdfb0a3b	-0.12257811
1	0xbcde0034	-0.027099706
2	0xbd56d0f1	-0.052445356
3	0x3db6cb05	0.08925442
4	0x3c66e607	0.014092929
5	0xbd6d1dd9	-0.057889793
6	0xbc5f0b00	-0.013613462
7	0x3dc45ed6	0.09588401
8	0x3dbe6258	0.09296101
9	0x3d1867ae	0.03720825
10	0xbdd63337	-0.10458987
11	0xbd3b860f	-0.045782145
12	0xbddc1225	-0.10745648
13	0xbdbcb02a	-0.09213288
14	0xbda53893	-0.08067431
15	0xbc27eda7	-0.010249532
16	0x3d5a7399	0.0533329
17	0x3d374be8	0.044750124
18	0xbbcf96f0	-0.006335132
19	0x3c222d94	0.009898562
20	0xbbc18e09	-0.0059068245
21	0xbb5b8684	-0.0033496926
22	0x3d6bea9f	0.0575968
23	0xbd8c57b2	-0.06852664
24	0x3aa76a00	0.0012772679
25	0x3cef22f5	0.029191473
26	0x3d9b539b	0.07584306
27	0x3d034a4a	0.03205327
28	0xbd29ad50	-0.04142505
29	0xbda27085	-0.07931618
30	0xbdd65591	-0.10465539
31	0x3d8bd494	0.068276554
32	0xbd73f8bd	-0.059563387
33	0xbba8cf67	-0.0051516774
34	0x3dafb33d	0.08579109
35	0xbd68a6a3	-0.056799542
36	0xbdbb0819	-0.09132404
37	0xbc8059e0	-0.015667856
38	0xbd921fbd	-0.0713496
39	0xbad09e37	-0.0015916292
40	0x3dc33a83	0.095326446
41	0x3def5641	0.116863735
42	0x3d5548f2	0.05207152
43	0x3ce397f9	0.027782427
44	0x3cfc0dd1	0.030768307
45	0xbd99ca35	-0.07509271
46	0xbc8c878b	-0.017154476
47	0x3d32fa3c	0.043695673
48	0xbdab87a7	-0.08375483
49	0xbd8b3ff8	-0.067993104
50	0xbd8d9292	-0.06912722
51	0x3dd23301	0.102636345
52	0x3d8210b4	0.06350842
53	0xbdac76cd	-0.08421097
54	0xbd0eaf21	-0.034834985
55	0xbcf37774	-0.029720046
56	0x3cd08568	0.025454238
57	0xbd2c4e86	-0.042067073
58	0xbd26cd3f	-0.04072308
59	0xbd11957c	-0.03554295
60	0xbd424636	-0.04743024
61	0x3d34194e	0.043969445
62	0xbd3b4e0b	-0.045728724
63	0xbb6c0a66	-0.003601694
64	0xbd44c1c6	-0.04803636
65	0xbb671f9d	-0.0035266646
66	0x3d328d3e	0.04359173
67	0x3d922372	0.07135667
68	0x3d33a69d	0.043860067
69	0x3d551ae0	0.052027583
70	0xbcc7214e	-0.024307873
71	0xbc86ca4f	-0.01645389
72	0xbe05e73e	-0.13076493
73	0xbddc2918	-0.107500255
74	0x3d8b2a0a	0.06795128
75	0x3e0218c8	0.12704766
76	0xbdbc6096	-0.0919811
77	0x3d9e43ee	0.077278
78	0xbc420946	-0.011843031
79	0x3d346755	0.044043858
80	0x3db50824	0.08839443
81	0x3d9d95c6	0.07694583
82	0x3c994fbd	0.01871478
83	0x3d49fd00	0.049313545
84	0x3de15e7e	0.11004351
85	0xbd814dda	-0.06313677
86	0x3dc05752	0.09391655
87	0x3d8be3d8	0.06830567
88	0x3d24e6f9	0.040259335
89	0xbd361a3a	-0.044458605
90	0x3da8ed5a	0.08248396
91	0x3c3db5e0	0.011579007
92	0x3c143039	0.0090447
93	0x3d9e4aef	0.07729136
94	0x3d6427f5	0.05570217
95	0xbd0368cf	-0.032082375
96	0xbd011272	-0.03151173
97	0xbd194b1b	-0.03742514
98	0x3d9c505d	0.076325156
99	0xbd2aa860	-0.04166448
100	0xbde6b6be	-0.11265324
101	0xbd8fb9f1	-0.070178874
102	0x3d2f0c54	0.042736366
103	0x3d8032a1	0.06259657
104	0xbd9100e6	-0.070802495
105	0x3b148cf3	0.002266702
106	0xbd58b8d8	-0.052910656
107	0xbda1ae5b	-0.07894584
108	0x3d97122e	0.073765144
109	0x3dbb8a6e	0.09157263
110	0x3e00c6fb	0.12575905
111	0x3d093231	0.033495132
112	0x3dfa48f3	0.12220945
113	0x3db5f353	0.08884301
114	0xbc19936c	-0.009373527
115	0xbcd6d353	-0.026223814
116	0x3c90b2a7	0.017663313
117	0x3d7ed69c	0.062216386
118	0x3d09116d	0.033463884
119	0x3c78d0c7	0.015186495
120	0xbd17c41b	-0.037052255
121	0x3dd4cca9	0.10390598
122	0xbc2ce8e2	-0.01055357
123	0xbc874703	-0.016513353
124	0xbc3df6ad	-0.011594457
125	0xbd032d5a	-0.032025672
126	0x3ca6ed1c	0.020376734
127	0xbd595a4c	-0.05306463
128	0xbda86ff1	-0.08224476
129	0x3cf6e1ad	0.030136907
130	0xbd981f73	-0.074278735
131	0x3d95aeb3	0.07308712
132	0x3cfd4132	0.030914877
133	0x3dc317d1	0.09526027
134	0x3cc6d9fa	0.024273861
135	0x3b614645	0.003437416
136	0xbc914b9d	-0.01773625
137	0xbb068ff9	-0.0020532592
138	0xbdb3d3ed	-0.08780656
139	0x3c91b4af	0.017786352
140	0x3d99bffd	0.07507322
141	0x3d8ce177	0.068789415
142	0x3ba6ec34	0.0050940756
143	0xbcb0f341	-0.021600368
144	0xbc301966	-0.010748243
145	0xbd7e340d	-0.06206136
146	0x3da7f721	0.08201433
147	0x3ccc89d4	0.024968065
148	0xbd3240fe	-0.043519013
149	0xbcd114ab	-0.02552255
150	0x3de88487	0.113534026
151	0xbca245c0	-0.01980865
152	0xbd44ccc6	-0.04804685
153	0xbcffc512	-0.0312219
154	0x3dd2571d	0.10270522
155	0x3da6dd58	0.08147687
156	0x3d4d4de3	0.050123107
157	0xbd6bea83	-0.057596695
158	0x3d49186b	0.049095552
159	0xbda3e00f	-0.0800172
160	0x3c10065b	0.008790578
161	0xbdab15aa	-0.083537415
162	0xbcc85542	-0.024454717
163	0x3cce1e88	0.025161043
164	0xbd780bc8	-0.06055811
165	0xbd048644	-0.03235461
166	0xbd0823fa	-0.033237435
167	0xbd355b80	-0.044276714
168	0x3b4509ff	0.0030065773
169	0xbe035f69	-0.12829365
170	0x39dfbd32	0.00042674836
171	0xbbdd5269	-0.006754209
172	0xbdabf328	-0.08395988
173	0x3d884e29	0.06655533
174	0x3c372ce8	0.01118014
175	0x3cc723a1	0.024308981
176	0x3dca0aaf	0.09865319
177	0x3dcf2112	0.101137295
178	0x3c655ea6	0.013999617
179	0xbda5aaa9	-0.080891915
180	0x3bbb8750	0.0057229176
181	0xbc57820e	-0.013153566
182	0xbdade31b	-0.084905826
183	0x3d0d2166	0.03445568
184	0xbda0ed06	-0.07857709
185	0x3bab06f7	0.005219336
186	0x3d8cd04a	0.068756655
187	0xbd9b1101	-0.075716026
188	0xbb6cf61c	-0.0036157435
189	0x3de88a22	0.11354472
190	0x3bf609b4	0.007508481
191	0x3d9e1aa0	0.07719922
192	0xbd89ae35	-0.067226805
193	0xbd1d3955	-0.038384754
194	0x3ced2525	0.028948376
195	0xbca7f851	-0.020504149
196	0xbdc31d88	-0.09527117
197	0xbd204571	-0.039128724
198	0xbd3faa94	-0.046793535
199	0x3d9dc593	0.077037
200	0xbd81a535	-0.06330339
201	0xbbd6f94c	-0.00656048
202	0x3dd086c1	0.10181952
203	0xbbb98a58	-0.005662244
204	0xbd8fd347	-0.0702272
205	0xbd8216aa	-0.06351979
206	0x3d8c3eef	0.06847941
207	0x3d8a8141	0.067629345
208	0xbdc3b710	-0.09556401
209	0x3d0188d8	0.031624645
210	0x3d8e58b8	0.069505155
211	0xbde6936c	-0.11258587
212	0x3df2e68a	0.11860378
213	0xbc8bcbaa	-0.017064888
214	0x3d424767	0.047431376
215	0x3d9778e8	0.07396108
216	0xbc383ae4	-0.011244509
217	0x3d4606a6	0.048346184
218	0x3d3cec79	0.046123955
219	0xbcdf8611	-0.027285608
220	0x3dae8979	0.085223146
221	0xbc815e2f	-0.01579198
222	0x3cf442fe	0.0298171
223	0xbd809239	-0.0627789
224	0xbd531c35	-0.051540572
225	0x3b80a74a	0.0039261924
226	0x3ca586a5	0.020205805
227	0x3da5c362	0.08093907
228	0x3cab52bc	0.020913474
229	0x3db1b2f1	0.086767085
230	0xbd4afed1	-0.049559418
231	0x3d9885ba	0.07447381
232	0xbd7f9efa	-0.06240747
233	0xbdbcaa48	-0.09212166
234	0x3cce8e09	0.025214212
235	0xbd76ab55	-0.06022199
236	0x3d7a8158	0.061158508
237	0x3d048ec5	0.032362718
238	0x3def83d1	0.11695064
239	0xbd0e8eb0	-0.034804046
240	0x3d9decc8	0.07711178
241	0xbd46fe76	-0.048582517
242	0x3d9805b3	0.07422962
243	0x3d649714	0.05580814
244	0x3d9230c1	0.07138205
245	0xbd0b075d	-0.03394257
246	0x3cc41d85	0.023939857
247	0xbd8ffe21	-0.07030893
248	0xbd361b6f	-0.044459756
249	0xbdd7890f	-0.10524189
250	0x3d14f60d	0.036367465
251	0xbdbc8e95	-0.09206883
252	0xbdaa17d2	-0.083053246
253	0xbc3ad296	-0.011402747
254	0x3d35ec2a	0.044414677
255	0xbce2c00c	-0.027679466

bias f4 [131]
0	0x3ca1c830	0.019748777
1	0xbcf208d4	-0.029545225
2	0x3d311347	0.043231275
3	0xbdae0911	-0.08497823
4	0xbb6577e1	-0.003501408
5	0xbb6c4a61	-0.0036055075
6	0xbc3eb86e	-0.011640651
7	0xbd87ae75	-0.06625072
8	0x3c93f8c8	0.018062964
9	0xbcae7864	-0.021297641
10	0xbdbaac40	-0.09114885
11	0xbd090efa	-0.03346155
12	0xbd8bb07a	-0.068207696
13	0x3c2d976b	0.010595183
14	0x3cc7e000	0.024398804
15	0xbc988d9c	-0.018622212
16	0xbbcba9da	-0.0062153162
17	0xbdadcbea	-0.08486159
18	0x3b1402ef	0.0022584756
19	0x3ce0e932	0.027454946
20	0xbd07c668	-0.0331482
21	0x3c8f88df	0.01752132
22	0xbdaf2ca2	-0.08553435
23	0x3cb3cd37	0.02194844
24	0xbd91f88a	-0.07127483
25	0xbc7348de	-0.014848916
26	0xbdb18719	-0.08668346
27	0xbc176fd6	-0.009242972
28	0xbd8a9293	-0.06766238
29	0xbcc4eb21	-0.0240379
30	0x3cc1d014	0.02365879
31	0xbdc00459	-0.09375829
32	0xbd573e18	-0.05254945
33	0x3c61a26f	0.013771637
34	0xbd71dd15	-0.05904873
35	0x3bccd98e	0.0062515205
36	0x3cb06d00	0.02153635
37	0xbdb3a478	-0.08771604
38	0xbda607f8	-0.08106989
39	0xbd3fd683	-0.046835434
40	0xbda1dbb4	-0.07903233
41	0xbcf5589a	-0.029949475
42	0xbd497e41	-0.04919267
43	0xbc7f1f95	-0.015571495
44	0xbd88ab41	-0.06673289
45	0xbdb1da24	-0.08684185
46	0x3cb95a95	0.0226262
47	0xbb26c4b5	-0.0025446836
48	0x3cc3172e	0.023814764
49	0x3c0d1ccb	0.008612822
50	0xbbb2d086	-0.005456987
51	0xbce781f4	-0.028260209
52	0xbc47f8e1	-0.012205333
53	0xbdb7c259	-0.08972616
54	0xbd50c351	-0.05096752
55	0xbcc8bcc8	-0.02450408
56	0xbd3fa38c	-0.04678683
57	0xb9532758	-0.00020137185
58	0xbd3c3a3a	-0.045953967
59	0xbdbeb134	-0.093111426
60	0xbd87e583	-0.06635573
61	0xbd262f5a	-0.0405725
62	0xbd679efe	-0.05654811
63	0xbcae3d37	-0.021269424
64	0xbc90d9b1	-0.017681928
65	0xbd01afcb	-0.03166179
66	0xbd63cb04	-0.055613533
67	0xbd953070	-0.07284629
68	0x3c12bd77	0.008956305
69	0x3c898c5d	0.016790563
70	0xbda581b8	-0.080813825
71	0xbd43ca18	-0.047800153
72	0xbcaedff7	-0.02134703
73	0x3c78f69b	0.015195514
74	0x3c4048e9	0.011736133
75	0xbd21c109	-0.039490733
76	0xbd9ea7ef	-0.077468745
77	0xbd6fb953	-0.05852635
78	0x38c9759e	9.606335e-05
79	0xbd670edb	-0.05641065
80	0xbd0795eb	-0.033101957
81	0xbd9d0e11	-0.076686986
82	0xbdb6d799	-0.08927841
83	0xbcbfb3b5	-0.02340112
84	0x3cc85c5d	0.024458105
85	0xbd108a60	-0.035288215
86	0xbd18ddf7	-0.037321057
87	0xbd59ac4c	-0.05314283
88	0x3a9a7ffa	0.0011787408
89	0xbc8f3e1d	-0.017485673
90	0xbbdfdf53	-0.0068320422
91	0xbd58c4af	-0.052921947
92	0xbd0a827a	-0.03381584
93	0x3c133b7a	0.008986348
94	0xbdb5beac	-0.088742584
95	0xbdaf05a4	-0.08545998
96	0x3c935b4a	0.017987866
97	0xbcbbf0fc	-0.022942059
98	0xbdb73d16	-0.08947198
99	0xbcd73e12	-0.026274715
100	0x3a818fca	0.0009884771
101	0xbd402e48	-0.046919137
102	0xbd05ed0e	-0.032696776
103	0x3d50c257	0.050966587
104	0x3d46b36f	0.048510965
105	0xbd3f7373	-0.04674096
106	0x3d461be1	0.04836643
107	0x3ce90c72	0.028448317
108	0x39d8e0ad	0.00041366127
109	0x3d618826	0.055061482
110	0x3d7204f6	0.059086762
111	0x3d858801	0.06520081
112	0x3d08c03b	0.03338645
113	0x3d3484bb	0.044071894
114	0xbd3d7d90	-0.046262324
115	0x3d1dc93a	0.038521983
116	0xba14d41a	-0.00056773575
117	0xbcebf044	-0.028801091
118	0x3d82ed4c	0.06392917
119	0x3bb6f886	0.0055838255
120	0x3d18e52b	0.037327927
121	0xbdae6cd8	-0.08516854
122	0xbd26b034	-0.040695384
123	0xbdb0dd6d	-0.086359836
124	0xbcfb236f	-0.030656544
125	0xbce274c3	-0.027643567
126	0xbd1b6192	-0.037934847
127	0x3c9cf1ef	0.019158332
128	0x3c86eba9	0.016469793
129	0x3c05e4fc	0.00817227
130	0xbd222c0b	-0.039592784

weight f4 [131, 256]
0	0xbc285f6e	-0.010276658
1	0x3bdb09bd	0.0066845105
2	0xbd3d64b5	-0.04623862
3	0x3d7d6632	0.06186504
4	0x3dc0c9c6	0.09413485
5	0x3cc305be	0.023806449
6	0x3ca7d54a	0.020487446
7	0xbca00fd5	-0.0195388
8	0x3cf4c87d	0.029880757
9	0xbba6a367	-0.005085397
10	0xbd21ed59	-0.039532993
11	0x3d9f14ad	0.077676155
12	0xbcb86d35	-0.022513011
13	0x3b88e671	0.0041778614
14	0x3d1298a5	0.035790104
15	0xbbfdcdd6	-0.007745485
16	0x3d53d729	0.051718865
17	0x3d80f386	0.062964484
18	0xbd702fb8	-0.05863926
19	0xbd41c51e	-0.047307126
20	0xbd0f5d02	-0.03500081
21	0x3d7dc91f	0.061959382
22	0xbb97130a	-0.004610424
23	0xbdb5ba2e	-0.088734016
24	0xba6202c2	-0.0008621627
25	0x3c414867	0.011797047
26	0xbd1a8d55	-0.03773244
27	0xbacab3c1	-0.0015464948
28	0xbd1a93af	-0.0377385
29	0xbd094b07	-0.033518817
30	0xbd086865	-0.033302683
31	0xbd242880	-0.040077686
32	0xb98608ec	-0.0002556512
33	0x3d07f6e7	0.03319445
34	0x3d3f69d7	0.046731796
35	0xbc9da2fa	-0.019242752
36	0xbc152d5f	-0.009105056
37	0x3cfb6b74	0.030690886
38	0xbc52daf1	-0.0128695825
39	0x3d05985b	0.032616
40	0xbbe2a173	-0.006916219
41	0xbb0a880d	-0.0021138221
42	0xbc3970cd	-0.011318398
43	0x3dc69aeb	0.09697517
44	0xbdc6e685	-0.09711937
45	0xbd916cd3	-0.07100835
46	0xbdad28ac	-0.08455023
47	0xbd815850	-0.063156724
48	0x3d965075	0.07339565
49	0xbc706260	-0.014671892
50	0xbd36cc60	-0.0446285
51	0x3daba124	0.083803445
52	0x3da6e377	0.08148854
53	0x3c2fd1b1	0.010731147
54	0xb97fb62c	-0.0002438656
55	0xbcb3e53a	-0.02195989
56	0x3990eafd	0.000276409
57	0x3d607a0a	0.054803886
58	0x3c26f8cb	0.010191153
59	0xbd4b139c	-0.049579248
60	0x3a552e04	0.0008132162
61	0xbb89b531	-0.004202508
62	0x3983c57e	0.0002513341
63	0x3d56e31c	0.052462682
64	0x3c53f605	0.012937074
65	0xbda6b473	-0.08139887
66	0x3cd4b43d	0.02596485
67	0x3cb4e71f	0.022082863
68	0xbc09511f	-0.008381157
69	0xbcdfe4d6	-0.027330797
70	0xbcf1e87c	-0.029529803
71	0xbc32b522	-0.010907443
72	0x3cc2ed95	0.023794929
73	0xbd97b022	-0.074066415
74	0xbd1a0f29	-0.037612114
75	0xbcc706b0	-0.024295181
76	0xbd3109e6	-0.04322233
77	0xbd4b6b80	-0.049663067
78	0xbc21e67c	-0.009881612
79	0x3af76db4	0.0018877299
80	0x3b870c20	0.0041213185
81	0x3d949fc8	0.07257038
82	0xbd15bdb6	-0.036557876
83	0xbc86db63	-0.016462034
84	0xbda6ba8e	-0.08141051
85	0xbcc812c4	-0.02442301
86	0x3da981e4	0.08276728
87	0x3d22e55e	0.039769523
88	0xbd20f5ed	-0.039297033
89	0xbca38813	-0.019962346
90	0x3c4ce261	0.012505145
91	0xbc49ad95	-0.012309452
92	0x3dacc8c6	0.08436732
93	0xbce2d8f9	-0.027691351
94	0xbd91f916	-0.071275875
95	0xbda62f67	-0.0811451
96	0x3c3ef750	0.011655644
97	0xbda0d062	-0.07852246
98	0x3d181aec	0.03713505
99	0x3cc83e6c	0.024443828
100	0xbd21b810	-0.039482176
101	0x3d7eba39	0.062189315
102	0xbc2e3045	-0.010631626
103	0x3d838662	0.06422116
104	0xbd1106f6	-0.03540703
105	0xbdaff206	-0.08591084
106	0x3c82a7bd	0.015949124
107	0xbc8ef141	-0.017449023
108	0xbdae5e6e	-0.08514105
109	0x3b04ef00	0.0020284057
110	0xbca28153	-0.019837057
111	0xbd821294	-0.063512
112	0xbd20ce40	-0.039259195
113	0x3d626505	0.05527212
114	0x3d546495	0.051853735
115	0xbc0863bf	-0.008324563
116	0x3cc3c6b1	0.023898454
117	0xbd1fdb11	-0.039027277
118	0xbc62cfcd	-0.013843489
119	0xbdc00ee6	-0.09377842
120	0xbd9071fd	-0.070529915
121	0xbc3de762	-0.0115908105
122	0xbbcc0017	-0.0062255966
123	0xbd4c099f	-0.049813863
124	0x3c13c8a1	0.009020002
125	0x3c4bdc4f	0.012442662
126	0x3d15e62b	0.03659646
127	0x3d80c328	0.06287223
128	0xbd6f4701	-0.058417324
129	0x3cf0180b	0.02930834
130	0x3d09b1ad	0.03361671
131	0xbc38153e	-0.011235533
132	0x3d3a6d8e	0.045514636
133	0xbcc5e1c0	-0.024155498
134	0xbdaa4715	-0.08314339
135	0xbc95ee2d	-0.018302048
136	0xbd8d58ad	-0.06901679
137	0xbd17ac20	-0.037029386
138	0xbca91bc4	-0.020643122
139	0x3d197b2a	0.037470974
140	0xbb82fed8	-0.003997665
141	0xbd41ed62	-0.047345527
142	0x3d1ea605	0.038732547
143	0xbce45a25	-0.027875016
144	0xbd9cd893	-0.07658496
145	0x3d8673de	0.06565069
146	0xbc917976	-0.017758112
147	0x3c60d48a	0.013722548
148	0x3d138210	0.03601271
149	0x3d83d286	0.064366385
150	0x3dac5393	0.08414378
151	0xbcaf6cf3	-0.021414256
152	0x3d69a8b6	0.05704566
153	0x3d8c9d0e	0.06865893
154	0x3d6e53fc	0.058185562
155	0xbcfc1014	-0.030769385
156	0xbcc81e54	-0.024428524
157	0x3c962bc7	0.018331422
158	0x3d007d3b	0.03136943
159	0x36c16cca	5.764513e-06
160	0x3ab9ec55	0.0014184812
161	0x3cb50da6	0.022101235
162	0x3c929356	0.01789252
163	0xba83822f	-0.0010033305
164	0x3d1073b2	0.035266586
165	0x3c9d6269	0.019211965
166	0xbd3296d2	-0.043600865
167	0xba367b6b	-0.000696114
168	0xbd94946b	-0.07254871
169	0x3d47a35b	0.048739772
170	0x3d0f385b	0.034965854
171	0x3c85a9ba	0.016316283
172	0xbd96036b	-0.07324871
173	0xbcb3bc7b	-0.02194046
174	0xbcb32e47	-0.021872653
175	0xbda6ae4c	-0.08138713
176	0xbb36f369	-0.002791608
177	0xbc325ad1	-0.01088591
178	0x3ce5e7a7	0.028064562
179	0x3ca87260	0.02056235
180	0x3d4a3909	0.0493708
181	0x3da73a5f	0.0816543
182	0xbd010ae6	-0.031504534
183	0x3d639851	0.055565182
184	0xbcc9b1eb	-0.02462097
185	0x3d5ab542	0.053395517
186	0xbd035368	-0.032061964
187	0x3c89dbc4	0.016828425
188	0x3ae97796	0.0017812129
189	0xbcc7d2ee	-0.024392571
190	0x3d36abe2	0.044597514
191	0x3daf9566	0.08573417
192	0xbd03a50e	-0.03213983
193	0xbd3f6033	-0.046722602
194	0xbc8bb1da	-0.01705258
195	0x3dae8f9a	0.085234836
196	0x3db2cfad	0.08731017
197	0xbc254161	-0.010086388
198	0x3cb97b9b	0.022641947
199	0xbd00d2bd	-0.031450976
200	0xbd3e9185	-0.046525497
201	0xbd58192f	-0.052758392
202	0xbbf3c945	-0.0074397647
203	0x3d4780c5	0.04870679
204	0x3d7d5d5f	0.061856624
205	0xbd96bb3d	-0.073599316
206	0xbca02197	-0.019547267
207	0xbb5918cc	-0.0033126352
208	0x3d73c650	0.059515297
209	0x3b7eb54c	0.0038865386
210	0xbcb9491c	-0.02261787
211	0x3c99d047	0.018776072
212	0xbcda1146	-0.026619565
213	0xba3d4778	-0.00072204275
214	0xbca24c9f	-0.019811926
215	0x3b6b52dc	0.0035907542
216	0x3bc043e0	0.0058674663
217	0xbc3f6edd	-0.011684147
218	0x3d2a4107	0.04156592
219	0xbcab299b	-0.020893862
220	0x3cef1e91	0.02918938
221	0xbd1a19b1	-0.037622157
222	0xbc8ee4b3	-0.017443037
223	0xbd6a6653	-0.05722649
224	0xbd31ee84	-0.043440357
225	0xbd9a5b65	-0.075369634
226	0xbd41766e	-0.047232084
227	0xbd002b3c	-0.03129123
228	0xbc37dcd0	-0.011222079
229	0x3d14555e	0.036214225
230	0x3c9ad11c	0.01889854
231	0xb9e353d1	-0.00043359262
232	0x3c3d4a5f	0.011553376
233	0xbc322954	-0.010874111
234	0xbb907dc7	-0.004409525
235	0x3da3db85	0.080008544
236	0xbca754ed	-0.020426238
237	0x3da9636c	0.08270916
238	0x3da5a4e7	0.08088093
239	0x3d1e4343	0.038638365
240	0xbd97625f	-0.0739181
241	0x3d8b0a80	0.06789112
242	0x3d97abe8	0.074058354
243	0xbd3444b1	-0.04401082
244	0xbbc25aa2	-0.0059312144
245	0xbc49b5a1	-0.01231137
246	0x3c53cc66	0.01292715
247	0x3b9f069f	0.004853084
248	0x3b424177	0.002964107
249	0x3cd72b1f	0.026265679
250	0x3d0c5295	0.034258444
251	0xbd0c2906	-0.03421881
252	0xbd5b8e69	-0.05360261
253	0x3d079b24	0.033106938
254	0x3d2ba1bf	0.0419023
255	0x3d1fdeb9	0.039030764

bias f4 [131]
0	0xbdad9dc7	-0.08477359
1	0xbd55d993	-0.052209448
2	0xbbb3d5c3	-0.005488129
3	0xbd1cc233	-0.03827114
4	0x3c5fe517	0.013665459
5	0xbd27f5ff	-0.041006085
6	0x3cc7f4a4	0.024408646
7	0xbdb73147	-0.08944946
8	0xbcbf2672	-0.023333762
9	0xbd950cef	-0.072778575
10	0x3c195bbb	0.009360249
11	0x3cacac9b	0.021078398
12	0x3cd2065e	0.025637802
13	0xbdb66c8d	-0.08907423
14	0xbd7ff5f4	-0.06249042
15	0xbd078f17	-0.033095445
16	0xbd2b943c	-0.041889414
17	0xbdcc0d59	-0.09963483
18	0xbd5f852f	-0.054570373
19	0xbc8ef972	-0.01745293
20	0xbcf0104a	-0.029304642
21	0xbd6738ef	-0.05645078
22	0x39b75f70	0.00034975586
23	0xbd89aa47	-0.06721931
24	0xbce6c08a	-0.028167982
25	0xbd216e31	-0.039411727
26	0xbbac12ca	-0.0052512633
27	0xbd101878	-0.035179585
28	0xbbd87501	-0.006605745
29	0xbd4d7fe4	-0.050170794
30	0xbcb276e3	-0.021785205
31	0xbc17bb50	-0.009260967
32	0x3cb99bdd	0.02265733
33	0xbc848efe	-0.016181465
34	0xbc3fb87c	-0.011701699
35	0xbd1785a8	-0.0369927
36	0x3b4ccf1f	0.0031251383
37	0xbdbdc954	-0.09266916
38	0xbdc146f2	-0.0943736
39	0x3c0bfab8	0.008543663
40	0xbdbcc79c	-0.0921776
41	0x3a6a7398	0.00089436164
42	0x3c460bf8	0.0120878145
43	0xbd6ccaa0	-0.057810426
44	0xbd78db6c	-0.060756132
45	0x3c22547a	0.009907836
46	0xbd4d0112	-0.05004985
47	0x3c5c2cb3	0.0134383915
48	0x3cc89eb8	0.024489745
49	0xbdafe3be	-0.0858836
50	0xbcd831c3	-0.026390916
51	0xbd85f7bf	-0.065413944
52	0x3b5e536f	0.0033924242
53	0xbd9c1060	-0.07620311
54	0xbcbc679c	-0.022998624
55	0xbda5967e	-0.08085345
56	0xbb01c2e0	-0.0019799992
57	0xbce86a6c	-0.028371058
58	0xbcfc2899	-0.030781077
59	0xbd90d9a6	-0.07072763
60	0xbd7eb57a	-0.06218479
61	0xbc017ced	-0.00790332
62	0xbc5de6fd	-0.013543841
63	0xbcffb155	-0.031212488
64	0x3ca106e5	0.019656608
65	0xbd2f31ff	-0.04277229
66	0x3cd46584	0.025927313
67	0xbd92a1e2	-0.07159783
68	0xbd7a8c87	-0.061169174
69	0xbd92581c	-0.07145712
70	0x3cc00b48	0.02344288
71	0xbcee68e8	-0.029102758
72	0xbdb3762e	-0.08762775
73	0xbd9a9c17	-0.07549303
74	0xbc882112	-0.016617332
75	0xbd0b6bba	-0.034038283
76	0x3c8fd959	0.017559694
77	0x3cddac92	0.027059827
78	0xbcda4170	-0.026642531
79	0xbd8d4cd9	-0.06899423
80	0xbc9406a4	-0.018069573
81	0xbcc66dce	-0.02422228
82	0xbcf452f9	-0.02982472
83	0xbd84cde5	-0.06484584
84	0xbca65009	-0.020301836
85	0xbc80b26e	-0.015710082
86	0x3c202c34	0.009776164
87	0x3c921d14	0.017836131
88	0xbc6bbf65	-0.014388894
89	0xbdb8d4ac	-0.09024939
90	0x3c598266	0.013275718
91	0x3cde270c	0.027118228
92	0xbd7921fd	-0.06082343
93	0x3c2b24fb	0.010445829
94	0x3cab5d7f	0.020918606
95	0xbd92a6c2	-0.07160713
96	0xbce37880	-0.02776742
97	0x3cc635ca	0.02419557
98	0xbc8bd73b	-0.017070403
99	0xbcaf4cb9	-0.021398889
100	0x3d763161	0.060105685
101	0xba3fdf17	-0.0007319315
102	0xbcb99f85	-0.022659073
103	0x3ceacbc7	0.028661622
104	0x3d6d7a7b	0.057978135
105	0x3d3d9a0b	0.046289485
106	0x3d041ac3	0.032252084
107	0x3a3c4322	0.00071816344
108	0x3d0cc786	0.034369968
109	0x3cdad4f6	0.026712876
110	0x3cf411e5	0.029793689
111	0xbcc181fb	-0.02362155
112	0x3b6db6f5	0.003627238
113	0x3d44c843	0.048042547
114	0x3ce1111b	0.027473977
115	0x3d69ed8a	0.0571113
116	0xbd2b6085	-0.041840095
117	0xbb20321c	-0.002444393
118	0x3d5b221a	0.05349932
119	0xbd3212e2	-0.04347504
120	0x3d924064	0.07141188
121	0xbda0eb9b	-0.07857438
122	0xbc20db93	-0.009817976
123	0xbd85c9ba	-0.06532617
124	0xbd422827	-0.047401574
125	0xbd81f5ae	-0.06345688
126	0xbcbc9cd2	-0.023023997
127	0xbd6a10ed	-0.057145048
128	0xbca697f7	-0.020336134
129	0xbdb60c52	-0.08889069
130	0xbda4b0ec	-0.08041558
